src/lstm_adversarial_attack/tune_train/best_model.onnx (onnx, 662959 bytes, 7 tensors)

3.bias f4 [16]
000000 be 34 2a bd 40 d9 ce bc 74 5c 79 3d 1c 8f 6a 3d
       -0.041554205 -0.025250077 0.060879186 0.057265386
000010 10 0a f3 bc 7c 1c f2 3c c8 88 14 bc d8 14 a5 bc
       -0.029667884 0.029554598 -0.009065814 -0.02015154
000020 9c 82 57 3d 14 84 3e 3d c6 e0 50 3d a0 bd bf bc
       0.052614793 0.04651268 0.05099561 -0.02340585
000030 32 c0 5d bd c4 b4 3d bd 52 5c 60 bd e0 c7 d5 bc
       -0.05413837 -0.04631497 -0.054775544 -0.026096284

5.bias f4 [2]
000000 10 a5 5b be 40 49 ef bd
       -0.21449685 -0.11683893

onnx::LSTM_215 f4 [2, 1024]
000000 58 34 79 bd e0 0e 2c bd 32 bf 65 3b 83 d7 c2 bc
       -0.060840935 -0.042006373 0.0035056588 -0.023784405
000010 6b f7 ba 3c 24 74 e8 bc 64 d9 20 3d f8 4d 90 bd
       0.022823056 -0.028375693 0.03926982 -0.07046121
000020 5a f5 98 bd 6a 73 98 3d 26 aa 39 bd fd 1c b2 3d
       -0.07468672 0.074438885 -0.04532828 0.08696935
000030 73 15 ab bd 82 a9 95 bd 05 ea 31 3d ae d7 78 3d
       -0.083537005 -0.07307722 0.04343607 0.060752563
000040 7f 13 aa bd a2 99 e5 3c 14 fb 63 3d 79 17 fb bc
       -0.083045 0.02802736 0.05565937 -0.030650841
000050 4c 40 79 bc a9 b1 88 bd 25 38 f9 bc 8c 6b a4 3c
       -0.0152130835 -0.06674511 -0.03042228 0.020070814
000060 ab 7b a2 3d 30 18 c3 3c e8 0b 18 3d e8 36 80 bd
       0.07933744 0.023815244 0.03712073 -0.062604725
000070 ec 45 a3 bd 0b 71 a0 3d 4b 76 64 3d b0 a7 3f bd
       -0.07972321 0.07834061 0.055776875 -0.04679078
000080 67 f3 aa 3d b3 d5 57 3d dd cd cd bc 3b d4 a4 3d
       0.083472066 0.052694034 -0.025122577 0.08048292
000090 63 0b 91 bd 33 cc 39 3d a7 e4 50 bd 2a 4f a6 3d
       -0.0708225 0.045360755 -0.05099931 0.08120568
0000a0 69 12 5e 3c 71 b8 af 3d 8a aa 36 bd 70 1a ee bc
       0.013554194 0.08580101 -0.044596232 -0.02906534
0000b0 e1 cb ee 3c 8f 22 90 3d 08 9f 98 3d b6 4c 48 bd
       0.029149951 0.070378415 0.07452208 -0.048901282
0000c0 15 fc 20 bd 25 fe 5a bd e2 5b 6f 3d a6 99 a9 bd
       -0.039302904 -0.053465027 0.058437236 -0.08281259
0000d0 e4 0e 7b bd ae ed e7 bc c6 1a 85 bd 4a 4a 4a 3c
       -0.061293498 -0.028311577 -0.06499247 0.012346813
0000e0 ca 2f c7 bc f9 55 0c bd 2f 39 68 bd d7 e3 7d bc
       -0.02431478 -0.034261677 -0.05669516 -0.015496216
0000f0 72 9f 08 3c 6e f3 14 3d f9 d5 10 3d 07 57 95 3d
       0.008338796 0.036364965 0.03536031 0.0729199
000100 69 f2 25 bd 32 6c b2 3d 67 4e ae 3d 4f 2a b6 3c
       -0.040514383 0.08712043 0.08511048 0.022236971
000110 09 dc 2e bd bc 01 78 3d 7e dc 23 bd 17 a7 b2 bd
       -0.04269031 0.06054853 -0.0400052 -0.08723276
000120 cc 61 ac bd 64 7f 76 bd b5 16 83 bd 23 ff 95 3d
       -0.08417091 -0.060180083 -0.064008154 0.07324054
000130 c6 b8 07 bd 39 c1 53 3d e5 00 0b bd 32 cc 87 3b
       -0.033135198 0.051697943 -0.0339364 0.004144215
000140 71 54 87 bd 0b 97 22 bd ef 3d 62 bd 47 d7 77 37
       -0.06607903 -0.039694827 -0.055234846 1.477247e-05
000150 b5 35 aa bd 17 ad ae bd 72 32 d3 3b e3 31 30 bd
       -0.08311025 -0.08529108 0.0064452225 -0.043016326
000160 68 0d 99 bb 90 37 d9 3c 64 6c 73 3d 2f c9 24 3d
       -0.0046707876 0.026515752 0.05942954 0.040230926
000170 ff 2e ad 3c 61 f2 8f 3d 32 3e 43 3d cb c5 39 3d
       0.021140574 0.07028652 0.047666736 0.045354646
000180 fb 52 cd 3c f3 04 35 39 84 89 a3 bc 72 63 40 3c
       0.025063982 0.00017263349 -0.019963033 0.01174246
000190 37 3d 53 3d 39 8b 26 bd ad 50 c6 3b 10 03 76 bd
       0.05157205 -0.040660117 0.006052098 -0.060061514
0001a0 15 a3 49 bd d6 df 04 3d c9 b8 9a 3c 12 22 d7 3b
       -0.049227793 0.03244003 0.01888694 0.006565341
0001b0 bf fa 0f bd d8 b9 40 3d 1f 3e 12 bb 08 23 2f 3c
       -0.03515124 0.047052234 -0.002231486 0.010689504
0001c0 f5 40 e5 3c 8d 1c 43 3d 77 b8 89 bd 44 2c f7 3c
       0.027985075 0.04763465 -0.06724637 0.030172475
0001d0 6a 37 a2 bd 8e 49 a0 3d 2a 09 9b 3d 3c a6 68 3c
       -0.07920726 0.078265294 0.07570107 0.01419979
0001e0 b8 32 e2 3c ae 65 13 bd 8b d6 ef 3c af 88 fe bb
       0.027612075 -0.03598564 0.029277107 -0.007767759
0001f0 7e db 96 bd 70 7d 95 3d 13 30 06 bd 90 fb 1c 3d
       -0.073660836 0.07299316 -0.03276069 0.038325846
000200 2c b7 3e bd 2f 2a 8b 3d fd ab a3 3c 1d 91 65 bd
       -0.046561405 0.06795155 0.019979471 -0.056046594
000210 e6 06 5a bc 18 94 a1 3d 22 c2 4c bc f8 60 a3 bd
       -0.013307309 0.07889575 -0.012497457 -0.0797748
000220 05 12 91 bd 3c a1 0a bd 67 7c 4b 3d 32 d3 f6 3c
       -0.07083515 -0.03384517 0.049679186 0.030130003
000230 19 ae 90 bc 7b 87 1f bb 6d 4a 9a 3d 99 1e 8d bd
       -0.017661141 -0.0024342227 0.07533727 -0.06890602
000240 c3 01 e0 3c 1a 0e de bc 87 86 4c bd 0d 7c 8c bd
       0.02734459 -0.027106334 -0.049932983 -0.06859598
000250 58 0d 1c bd 83 a5 5e 3d 06 55 8c 3d 2e 67 c4 ba
       -0.038098663 0.054357063 0.068521544 -0.0014984363
000260 67 fd e9 bc cc 16 06 bd 77 e8 8e bd 22 af 54 bc
       -0.028563214 -0.032736585 -0.06977933 -0.012981208
000270 16 8c cc 39 36 43 43 3d 0e 51 83 bd 53 c1 94 bd
       0.00039014284 0.04767152 -0.06411944 -0.07263436
000280 7a 40 9c bd 82 39 a2 3c 97 72 88 3d 5a 71 a5 3d
       -0.076294854 0.019802812 0.06662481 0.08078261
000290 ea 6c 8b bd c4 7b 24 3c f7 7f b9 3c ed 32 e9 3c
       -0.06807883 0.010039274 0.022644026 0.028466666
0002a0 fc 50 24 3d 26 e1 f8 3b 60 59 45 3d 58 32 c0 3c
       0.040116295 0.007595199 0.048180938 0.023461506
0002b0 c5 dd 9b 3d 58 24 3a bd de 06 d3 bc 07 a6 a8 bd
       0.076106586 -0.045444816 -0.02576011 -0.08234792
0002c0 a1 f3 c8 bc c6 2b 84 3d 7d bf 73 3d 34 4a 52 bd
       -0.024530234 0.064536616 0.05950879 -0.051340297
0002d0 2d 18 ad bd 13 72 81 3d 81 3b 94 bc 69 23 44 3d
       -0.08451877 0.06320586 -0.01809478 0.047885332
0002e0 24 65 7e 3d 51 ad 87 bd 0a 6b a0 3c 3c 3a 1a bc
       0.062108174 -0.06624854 0.01958229 -0.009413298
0002f0 c4 c5 4d bd 1e 27 8d bd ad 22 4d bd 3b 7f 55 3d
       -0.050237432 -0.06892227 -0.050081898 0.05212329
000300 1f 98 b4 3c 16 29 6a 3d ef c8 99 3d 1f 13 1a bc
       0.022045193 0.05716809 0.07509028 -0.009403973
000310 71 39 00 bd 3a 0f 02 3c 5b 15 55 3d 0a 84 9b bd
       -0.03130478 0.007938201 0.05202232 -0.07593544
000320 f8 fc f4 3c 57 73 90 3c 90 4d ad bd 9c 04 ae 3b
       0.029905781 0.017633123 -0.084620595 0.005310608
000330 1c 8d 2d bc 50 e3 5d 3d 36 cd a9 3d 7a e1 a2 bd
       -0.010592725 0.05417186 0.08291094 -0.079531625
000340 9b bb 8f bd 11 5c 9e 3c 19 26 86 3c 17 97 2a bc
       -0.07018205 0.01933101 0.016375588 -0.010411999
000350 b8 15 f9 bc 17 7c dc bc d9 88 8b 3d 22 34 0c 3d
       -0.030405864 -0.02691464 0.06813211 0.034229405
000360 47 aa 94 3d ad f8 e8 bc bd a7 a3 bd c4 8a 95 3d
       0.0725904 -0.02843889 -0.07990978 0.07301858
000370 95 ad 22 3b c2 8c 5f bc a6 94 eb bc 76 91 a4 bd
       0.0024822701 -0.013644399 -0.028757405 -0.08035557
000380 d3 0b 7e bd e7 44 a1 3d a0 44 06 bd 32 bf 89 bd
       -0.062022995 0.0787447 -0.03278029 -0.06725921
000390 f5 52 cd bb ee 63 4d bb e9 90 b4 3d 0d 2d 8f bd
       -0.0062659928 -0.003134008 0.08816702 -0.06991015
0003a0 95 ed 1b 3d 5e b2 b5 bc 90 57 82 bd f3 ae c9 bc
       0.038068373 -0.022179779 -0.063643575 -0.024619555
0003b0 ab ac a9 3d c9 d8 9a bd de a4 0f 3c 14 2b 22 3d
       0.08284887 -0.0756088 0.008767335 0.039591864
0003c0 56 5a 67 3d 47 e9 f0 bc b4 46 9a bd a8 18 d7 3c
       0.056482635 -0.02940811 -0.07533017 0.026256874
0003d0 6c 9c 99 bd 7e 5e 64 bd c6 0e 8e bd 30 eb b1 3d
       -0.07500538 -0.055754177 -0.069364116 0.086874366
0003e0 d4 ce c2 b7 71 ba 51 3c 51 1e 87 bc 06 1e 99 bb
       -2.3222914e-05 0.012800799 -0.016493948 -0.0046727685
0003f0 0d e0 03 3d a4 3d 00 bc 63 0d 7f 3d 30 4d 58 3d
       0.032196093 -0.007827196 0.062268626 0.052807987

onnx::LSTM_216 f4 [2, 512, 19]
000000 60 c3 9d bb 00 5b de 3c f5 68 83 ba c2 60 60 3c
       -0.0048145503 0.027143002 -0.0010025786 0.013694944
000010 66 59 a6 3d e0 70 1f bd c9 bb eb bc ec 3f 8a 3d
       0.0812252 -0.038926005 -0.028776066 0.067504734
000020 6e ef 51 bd da 54 2d bd ee 32 7b bd ec ad 2d 3d
       -0.05125373 -0.04231725 -0.061327867 0.042402193
000030 a7 87 c6 3b cd 31 38 3d 23 df 61 bd 97 b8 43 3d
       0.0060586515 0.04496937 -0.05514444 0.04778346
000040 82 54 5d bc 69 54 b3 bd 4d cb 93 3d 72 00 19 bd
       -0.013508918 -0.08756334 0.07216511 -0.03735394
000050 f4 0f 9c bd a9 29 c0 bc 58 d8 6b 3d 10 36 2e bc
       -0.0762023 -0.023457365 0.05757937 -0.010633007
000060 b3 78 b4 3c cf 10 d8 bc 4d 53 34 bd 37 65 63 bd
       0.02203021 -0.026375202 -0.044024754 -0.055516448
000070 dc 74 4c bd cf c1 4d bd 8e e0 43 3d 2e 79 9d bd
       -0.049916133 -0.05023366 0.047821574 -0.07689129
000080 4f ff ae 3d 14 0c fe bc fa f0 53 bd 43 22 fa 3c
       0.0854479 -0.031011619 -0.051743485 0.030533915
000090 b7 03 e3 bc 67 bd 5b 3d 7d e0 1d bd c3 07 64 bd
       -0.027711732 0.053647425 -0.038544167 -0.055671465
0000a0 57 9c aa 3d ea af 24 bd 98 60 12 bd df 20 43 3d
       0.08330601 -0.040206827 -0.03573665 0.04763877
0000b0 b4 6b 43 bd 40 80 98 bd ac ca 6c bb d4 a2 95 bd
       -0.047710136 -0.07446337 -0.0036131544 -0.073064476
0000c0 66 4b 98 3d 83 99 5e bc 39 f7 8e 3d c1 ed 95 bd
       0.07436256 -0.013586405 0.06980748 -0.073207386
0000d0 7d 94 a8 3d 5d 86 30 3d e0 d1 16 bd 30 1d 98 3c
       0.08231447 0.04309689 -0.036821246 0.018568605
0000e0 14 00 a3 bd 4c fa 8b 3d f9 21 8d 3c 43 8a 0b bd
       -0.07958999 0.0683485 0.017228113 -0.034067404
0000f0 f0 9d ad 3d f4 cd 18 3d bb 18 6d 3d b5 99 a2 3d
       0.0847739 0.037305787 0.057884913 0.079394735
000100 68 3c 86 bd a2 c3 9a 3c 80 09 3e bd 48 77 56 bd
       -0.0655449 0.018892113 -0.04639578 -0.05235985
000110 c1 86 cd ba 04 2f 73 bd 9f 42 87 3d 84 b8 1b 3d
       -0.0015680419 -0.05937101 0.06604504 0.038017765
000120 e3 98 e8 bc fd ea 59 bd fa 7f 15 3b a4 3d 13 3d
       -0.028393215 -0.053202618 0.0022811876 0.035947457
000130 68 ba 25 ba 62 f7 b2 bd 1f 6c 9e 3d a8 75 4c bd
       -0.0006322027 -0.08738591 0.07735466 -0.049916893
000140 e1 00 8f bd 4d 5e 95 3d ad 6c 65 3d dc 63 2a 3d
       -0.069825895 0.07293377 0.056011844 0.04159914
000150 5e 89 48 3c 2a 66 ea bc a9 e4 b0 3d e0 66 bb bc
       0.012239782 -0.028613169 0.086373635 -0.022876203
000160 3a 41 e8 bc 5c 7c 57 3c 58 b6 74 bd 6a 61 b1 bd
       -0.028351415 0.013152208 -0.05974421 -0.086611584
000170 f3 54 96 3c 4b 13 1d 3d 1b 77 f8 bc 68 d6 05 bd
       0.018351054 0.038348477 -0.030330231 -0.032675177
000180 35 d5 88 3c 1a 93 ce 3c 50 65 5d 3d b2 1b bc bc
       0.016703228 0.025216628 0.054051697 -0.022962425
000190 04 b7 59 bd 02 28 e5 3c 7a ef 8a bd 3d 58 89 bd
       -0.053153053 0.027973179 -0.06783958 -0.06706283
0001a0 62 6c ba 3c 71 60 9e 3d e7 46 ae 3b cb a3 b2 bd
       0.02275676 0.077332385 0.005318511 -0.08722647
0001b0 dc 9f ff 3c 95 34 06 bd 04 0e ef 3c 6b c2 09 3b
       0.031204157 -0.03276499 0.029181488 0.0021020423
0001c0 dc 07 5c bd e1 69 52 3d 28 b6 4a 3d 6e 1c 00 3d
       -0.053718433 0.051370505 0.049490124 0.031277113
0001d0 62 85 a4 3d 14 48 aa 3d f0 95 79 bd de da f5 3c
       0.08033253 0.08314529 -0.060934007 0.03001159
0001e0 df 7a 31 bd b7 a1 92 bc a6 5b bb 3c 29 38 dd bc
       -0.04333007 -0.017899377 0.02287085 -0.027004318
0001f0 31 14 b3 3d 95 f9 a6 3d e1 3f 90 bd 11 74 a6 bd
       0.087440856 0.08153073 -0.07043434 -0.08127607
000200 76 69 3b 3d 06 3d bb 3c 79 d6 a0 3a 6b fc 78 bd
       0.045754872 0.022856247 0.0012270949 -0.0607876
000210 8c e3 39 3d 95 0d 0a bd 97 e4 8e 3d 3a 5c f1 3b
       0.04538302 -0.03370436 0.06977194 0.0073657306
000220 7e d5 e9 bc e8 3e ae bd bf 70 7f bd 52 53 0a bd
       -0.028544184 -0.08508092 -0.062363382 -0.033770867
000230 f7 85 74 bd ab f3 88 3d 18 21 3f bd 4c c1 c7 bc
       -0.05969807 0.06687101 -0.04666242 -0.024384163
000240 c7 78 47 bb 69 86 9f bd 64 2f 04 3c b0 c1 36 3d
       -0.003043698 -0.077893086 0.008067939 0.04461831
000250 15 91 17 3d ed c5 85 3d 76 c4 ad bd 31 f1 65 3d
       0.037003595 0.06531892 -0.084847376 0.05613822
000260 12 a0 35 3c fa 89 32 bd 06 2b 28 3d 37 bf 6c 3d
       0.011085527 -0.043588616 0.041056655 0.057799544
000270 ff ef f4 3c 81 c5 28 3c 3b 2f 84 bd 8d db a8 bd
       0.029899595 0.010300995 -0.06454321 -0.08245001
000280 60 b8 83 bd 3d bc e9 bc 90 ec 9b 3d 38 41 76 3b
       -0.06431651 -0.028532142 0.0761348 0.0037575494
000290 93 f4 6f bc e1 4a 43 3d bb a6 92 bd c8 b5 07 3d
       -0.014645713 0.047678832 -0.071607076 0.033132344
0002a0 ef cd 59 bd 27 74 11 bd 4c 7b 8f bd e9 bd a9 3d
       -0.05317491 -0.035511162 -0.07005939 0.082881756
0002b0 f4 64 aa 3d e8 da 56 bd 23 56 13 bc 2c a0 19 3d
       0.083200365 -0.05245486 -0.008992705 0.037506267
0002c0 ac 40 8c 3b 86 02 a3 bd fc c8 35 bd 4c d7 a3 3d
       0.0042801704 -0.07959466 -0.044381127 0.08000049
0002d0 ac 8b 55 bd 91 7f 4c 3d 0a 7d ed 3a 4d 12 71 3d
       -0.052135155 0.049926344 0.001811893 0.058855344
0002e0 b7 dd 17 bd da 9a 71 3d 86 7a 5c bd 82 b8 53 3d
       -0.037076678 0.05898557 -0.053827785 0.051689632
0002f0 4a ec 9b bc 0b 94 2a bd b0 b4 33 3d 73 3f 82 3d
       -0.01903357 -0.04164509 0.04387349 0.06359758
000300 d6 f2 7a bd 15 01 ce bc 61 29 88 3d ae e7 92 3d
       -0.061266743 -0.025147 0.066485174 0.07173096
000310 75 de 12 3c 05 ad b5 3c 61 6a 3d bb 97 a7 51 3d
       0.008964171 0.022177229 -0.0028902518 0.051185217
000320 1e a8 67 bd 1d 5e b0 3c df 4b 82 3d 00 c6 98 3d
       -0.056556813 0.021529252 0.063621275 0.074596405
000330 69 7d 81 3c a1 af 00 3d 32 36 9a bd 68 0f 47 bd
       0.01580687 0.031417493 -0.07529868 -0.048598677
000340 01 12 9d 3d e1 98 b3 3d 1b 6e 55 3d 6d 88 48 3d
       0.076694496 0.08769394 0.052106958 0.04895823
000350 d9 e3 5e bc d7 84 58 bd 61 34 14 bd 35 e8 13 bd
       -0.013604128 -0.05286106 -0.036182765 -0.03611012
000360 62 56 9b 3c 5e 5f 38 bd 6d ad 31 3d 12 49 8c 3c
       0.018962089 -0.045012824 0.043378282 0.017124686
000370 81 27 47 bc 68 1c f6 bc 48 0e 64 3d cc ea a5 bd
       -0.012155415 -0.030042842 0.055677682 -0.081014246
000380 7d b1 62 bd fb 9e 06 3d 13 6c 98 3c 7a 1c b4 3d
       -0.055345047 0.03286646 0.018606221 0.08794494
000390 60 bf 98 bd 9d 86 c2 3c 7f da 35 3a ef bd 33 3d
       -0.07458377 0.02374583 0.00069371605 0.043882307
0003a0 53 2c 3e bd 24 ab 24 bd 20 8d 00 3d 27 55 8c 3d
       -0.04642899 -0.040202275 0.031384587 0.06852179
0003b0 5b 77 ee bc 57 38 ae bc 41 54 a0 bd 3d 74 ab 3a
       -0.029109647 -0.0212671 -0.0782857 0.0013080906
0003c0 df f9 b2 3d 69 59 94 bd 0d ed 89 3d de 69 f0 3a
       0.087390654 -0.07243616 0.06734667 0.0018342098
0003d0 61 23 74 bd 4c e3 93 3d eb 75 9e 3b bf 62 4f 3d
       -0.059604052 0.07221088 0.0048358343 0.05063128
0003e0 a4 41 96 3d 84 77 b2 3d f1 de 30 3d 23 fe 3e bc
       0.07336739 0.08714202 0.043181363 -0.011657271
0003f0 bf d2 81 bd c5 17 88 3d 2a 93 98 3d 85 27 9a 3c
       -0.06339025 0.06645159 0.07449944 0.018817673

onnx::LSTM_217 f4 [2, 512, 128]
000000 42 bf 75 bd 8b 8d b3 bd 69 0b fb 3c 36 fc 66 bd
       -0.05999685 -0.087672316 0.03064509 -0.05639287
000010 ff 75 83 bd 78 25 8a 3d 8f 8e 37 3d 53 93 82 3c
       -0.0641899 0.06745428 0.04481369 0.01593939
000020 64 73 8b 3d 1c 22 69 3d e7 fa f2 bc 8f 05 ae bd
       0.068091184 0.056917295 -0.029660655 -0.08497154
000030 79 39 af 3d 59 f3 b2 3d 4d a1 56 3d c8 b1 1a 3c
       0.08555884 0.08737821 0.052399922 0.0094418
000040 5d e2 b3 3d 05 4a 47 3c 1c 83 d1 3b 2f 0d 04 3c
       0.0878341 0.012163644 0.0063938033 0.008059784
000050 9d cb 72 bd 6b 00 96 3d c1 ac 24 3d a1 80 a4 bc
       -0.059276212 0.073242985 0.040203813 -0.020080866
000060 66 6a a9 3d 1c 5b 34 3d 50 4b 9e bd 54 e8 5f 3d
       0.08272247 0.0440322 -0.077292085 0.054664925
000070 33 56 ac bd dd 9d 91 bd 05 60 ea bc ea 52 89 3d
       -0.08414879 -0.07110188 -0.028610239 0.06705268
000080 f5 89 b1 bd 4a 66 8f 3c 03 76 63 bd eb fc 9d bd
       -0.08668891 0.01750483 -0.055532467 -0.07714256
000090 5d 17 21 3d 42 18 8c bc 13 cf aa 3d 67 6d b1 3d
       0.03932892 -0.01710141 0.083402775 0.08663445
0000a0 0f f4 8f bd 09 16 4b bd 37 af 01 3d 14 01 90 bd
       -0.07028972 -0.04958156 0.03166124 -0.07031456
0000b0 0e b4 59 bd e5 84 95 3d 54 74 9e bb 2b 69 bc 3a
       -0.05315023 0.07300738 -0.0048356447 0.0014374604
0000c0 de b2 9e bd 30 8b c2 bc b4 21 b8 bc 33 ca 91 bc
       -0.0774896 -0.02374801 -0.022477008 -0.017796611
0000d0 5e c2 93 3d db 2c 87 bc 4c 18 99 bd 7d c9 8e 3d
       0.07214807 -0.016500881 -0.074753374 0.069720246
0000e0 8e af a1 3a 92 62 a1 3d 2e 31 28 3d c6 e8 30 3b
       0.0012335645 0.07880129 0.041062526 0.0026994213
0000f0 eb 2a 6f 3c e7 42 88 bb 02 86 46 bd 00 77 7b bc
       0.014597635 -0.004158366 -0.048467644 -0.015348196
000100 50 e1 70 bd ce 4e 23 bd 6f bc a5 bd e9 ca 34 3d
       -0.058808625 -0.039870076 -0.080925815 0.044138823
000110 a8 ab e2 3b c9 77 90 bd be e7 84 3d c2 d9 1d bd
       0.0069174357 -0.07054097 0.06489514 -0.03853775
000120 7a b7 8f 3d 06 5b 93 3d 17 f2 4b 3d ce 9c 45 3c
       0.07017417 0.07195096 0.04979142 0.012061311
000130 ed f1 90 bd 74 74 7e 3d 73 e3 9f bc 76 be 53 3d
       -0.07077394 0.062122777 -0.019517636 0.05169531
000140 d6 e1 83 3d 42 e2 0a 3d 41 b9 c7 3c e5 0d 38 3d
       0.06439559 0.033907183 0.024380328 0.044935126
000150 a5 e8 a5 3d ab 6c 8c 3d b1 6a a2 bd 37 c6 ae 3d
       0.08101014 0.06856664 -0.07930506 0.085339
000160 e5 57 ae 3c 05 e1 88 3d d1 7a 35 3d 3e 52 c2 3c
       0.021282146 0.06683544 0.04430658 0.023720857
000170 2a 28 04 bd 1a 69 84 3d d1 2f be bc f8 83 21 bd
       -0.032264866 0.06465359 -0.02321616 -0.039432496
000180 c4 9b 41 3c 21 a3 a8 bd eb 62 cc 3c fb d8 aa 3d
       0.011816923 -0.08234239 0.024949512 0.08342167
000190 f1 13 8c 3d f6 87 01 bd 13 fa 86 bc 98 52 2b 3d
       0.06839741 -0.031623803 -0.016476667 0.041826814
0001a0 f4 ed c8 bb 84 4b ee b7 6a 7b 8e bd 59 17 99 3c
       -0.006131882 -2.8406976e-05 -0.06957133 0.01868789
0001b0 8e 9f 0a bd 4f 83 66 3d 35 28 a1 bd 80 af 6b bd
       -0.03384357 0.05627757 -0.07868997 -0.057540417
0001c0 a9 d3 5e 3d b0 f2 53 bc b6 3c 3b bd 7f 4e 7d 3d
       0.054401074 -0.012936279 -0.045712195 0.061842438
0001d0 44 73 81 3c fc 5b 9c 3d e0 c5 b6 bb 4b f2 42 bd
       0.015802033 0.07634732 -0.0055777878 -0.04759435
0001e0 cb 6f 34 3c ca 70 3e bd 90 46 03 3d e3 67 6c bd
       0.011012982 -0.046494283 0.032049716 -0.05771626
0001f0 00 d5 b3 3d ba e2 7f bb 04 a5 8a 3d 67 32 2f bd
       0.08780861 -0.0039045052 0.067697555 -0.042772677
000200 1c 8f 09 3c 63 30 b0 3d ff 88 49 3d 60 d7 cb bc
       0.008395936 0.08602979 0.049202915 -0.024882972
000210 b3 d2 0e 3d b9 db 76 3b 17 e2 b3 bd 5f 66 92 bd
       0.034868907 0.0037667586 -0.087833576 -0.07148432
000220 f3 0e 48 3d 83 49 94 bd ba 36 fa 3c c0 80 2a bd
       0.04884238 -0.07240584 0.030543674 -0.04162669
000230 77 b2 82 3d 5c d6 90 bd 05 70 4c 3c 1b 03 83 bd
       0.06381696 -0.07072136 0.012477879 -0.06397077
000240 b1 1f c9 3c 1a 5b a1 3d c2 bb fd bc 16 37 9d bd
       0.024551244 0.07878704 -0.030973319 -0.076765224
000250 36 80 5a 3b 74 2c 2e 3d e2 ba 95 bd b4 0e 97 3d
       0.003334058 0.042522863 -0.07311036 0.07375851
000260 0f 7c 93 3d 31 33 36 bc b9 07 4c bd d0 3b 3e bc
       0.07201397 -0.011120603 -0.049812052 -0.01161094
000270 3e fc 73 3c e6 d3 ae 3d f1 b1 99 bd 09 78 6f bd
       0.014891682 0.0853651 -0.07504643 -0.058464084
000280 e6 4f 5c 3d a2 61 16 3d 85 16 93 3d 86 0c a1 3c
       0.053787135 0.036714204 0.0718203 0.019659292
000290 4e 5a 64 bd 05 f0 19 bd 50 30 c0 3b 91 b9 79 3d
       -0.055750184 -0.037582416 0.0058651343 0.060967986
0002a0 29 d7 22 3d 32 79 30 bd 7c 6d 04 3d ad 71 01 bc
       0.039755974 -0.04308433 0.032330975 -0.007900638
0002b0 d1 38 0e bd 5b 94 0c 3d 32 0b 1d bd 53 0f 15 3d
       -0.034722153 0.03432117 -0.038340755 0.036391567
0002c0 b5 fa 8e bd 9f 46 b1 3d ad 2f 84 bc 78 a8 83 3d
       -0.06981412 0.08656048 -0.016136015 0.06428617
0002d0 85 f7 85 3c a0 1e 97 3d 83 94 ad 3c 59 54 1b 3d
       0.016353378 0.07378888 0.02118898 0.037922237
0002e0 0b 42 60 bc 97 8a 46 3d 23 04 8f 3d 2e b4 81 3d
       -0.013687621 0.048472013 0.06983211 0.06333195
0002f0 f7 9f 06 3d da da 2c 3d ef 22 66 bd a7 dc a9 bd
       0.032867398 0.0422009 -0.05618566 -0.08294039
000300 16 de 33 bd 65 52 5a bd 7d 2b 85 3d 49 b3 b7 3c
       -0.04391297 -0.053301234 0.06502435 0.022424357
000310 86 2d 41 bd 69 0d 2f bd 7e cd 63 bd 06 c4 3b 3d
       -0.047162555 -0.0427374 -0.055615894 0.04584124
000320 cb a1 a0 bc de fb 9c bd 5e f2 7b bd 17 0c 69 bd
       -0.019608399 -0.07665227 -0.061510436 -0.056896295
000330 16 7e a8 bd 1c 7d 8f 3d 2b e3 74 3d bf c8 a5 3c
       -0.08227174 0.070062846 0.059786957 0.020237325
000340 9f 7a 36 bd 25 b4 22 3d 8a b3 78 bc 71 7b 29 bd
       -0.044550534 0.03972258 -0.015179524 -0.04137749
000350 49 f7 c2 3c 50 b4 0b bd 64 de da bc aa 55 9d bd
       0.023799555 -0.034107506 -0.026717372 -0.07682355
000360 3c a2 99 3d aa e6 58 bc 57 38 0a bd 22 de 7a 3d
       0.07501647 -0.013238588 -0.033745136 0.061247
000370 54 30 4e bd 97 5e 00 bd 1f 0a 93 ba 2b e6 b1 3d
       -0.050339058 -0.031340208 -0.0011218226 0.08686479
000380 5b 9a a7 3c 76 b4 9d bc da 26 23 3c d0 f2 72 bc
       0.020459345 -0.01925109 0.009957993 -0.014828399
000390 1b 4d 31 3d 2d 0f d3 3b 80 16 1b bc 51 2c 35 3d
       0.043286424 0.006441018 -0.009465814 0.044231717
0003a0 0c 51 f1 bc 3c b6 a3 3d 7c 42 14 3b 7d 2c 9a bd
       -0.029457591 0.07993743 0.0022622636 -0.07528017
0003b0 2d fe a1 3c cc d9 ad 3d 3e b7 1d 3d e5 58 3e 3c
       0.01977452 0.08488807 0.03850483 0.011617874
0003c0 98 e6 3b bd 45 92 48 bd 4e 2c 80 bd fe 89 83 bd
       -0.04587421 -0.04896762 -0.062584504 -0.06422804
0003d0 21 49 ab 3c 2f 6a 73 3c 22 cf 8c 3d 94 28 90 bd
       0.020908894 0.014856859 0.06875445 -0.0703899
0003e0 ae 34 5d 3d 35 3c 88 bd 2f d4 8e bc 20 4b ab 3d
       0.054005317 -0.066521086 -0.017435161 0.08363938
0003f0 aa e3 87 bc 17 5f b4 3d ac 11 b6 3c 13 0e 35 bd
       -0.01658805 0.088071994 0.022225223 -0.044202875

onnx::MatMul_220 f4 [256, 16]
000000 c8 7e 5e bd 8a f3 3d bd e0 53 d4 bb 8a 07 46 bd
       -0.054320127 -0.046374835 -0.0064797252 -0.048347034
000010 c0 8d 56 3d 88 2d 0f bd 5e 5f 0c 3d 50 a4 e3 bb
       0.052381277 -0.03495553 0.034270637 -0.006947078
000020 0c 06 c7 bc 04 28 59 bd 00 1e 29 3c 36 13 6f bd
       -0.024294876 -0.053016677 0.010322094 -0.05836793
000030 76 8e 20 3d ce c4 6d 3d 40 2a ac bb c0 12 dc 3b
       0.03919836 0.058049016 -0.00525406 0.0067161024
000040 b0 80 5a 3c ec 76 a4 3c ea 27 47 3d b8 cb 77 bd
       0.013336346 0.020076238 0.04862205 -0.060497016
000050 a6 d4 33 3d 4e 18 14 bd 58 9d 42 3d 58 9c e6 3c
       0.04390397 -0.03615599 0.047513336 0.028150722
000060 5c 51 c8 bc e4 d4 d5 3c 54 76 79 bd 9c ed 4f 3d
       -0.024452858 0.02610249 -0.060903862 0.05076371
000070 8a 23 00 bd 80 c5 38 3d 7a 7c 59 bd ac 38 bd 3c
       -0.031283893 0.045110226 -0.053097226 0.023098312
000080 00 7c 83 ba a0 07 72 bc c0 c1 b3 ba 38 03 77 3c
       -0.0010031462 -0.014772326 -0.0013714358 0.015076451
000090 a4 8e 50 3d a0 f3 7f 3b 00 5f 58 ba 8e 43 5b 3d
       0.050917283 0.0039055124 -0.0008253902 0.053531222
0000a0 2a e8 2a bd 5e 47 3a bd 2e ba 29 bd 66 7b 3e 3d
       -0.041725315 -0.045478217 -0.04143732 0.0465044
0000b0 ba ca 79 3d 88 63 70 3d fa 47 41 bd 78 bb 32 bc
       0.06098435 0.05868867 -0.047187783 -0.010908954
0000c0 20 58 00 bd 08 d8 52 bc 5a 6b 36 3d fa ad 1f 3d
       -0.031334043 -0.012868889 0.044535972 0.038984276
0000d0 88 58 16 3d e6 9c 2e 3d c8 30 37 bc 26 bd 00 3d
       0.036705524 0.0426301 -0.011181064 0.031430386
0000e0 7e 03 27 bd 8c e0 cc 3c 80 92 b8 bc e0 11 4b 3c
       -0.040774815 0.025009416 -0.022530794 0.012394398
0000f0 02 d3 1c bd e8 95 98 bc 30 a1 ae bc ba a3 55 bd
       -0.03828717 -0.018626168 -0.021317095 -0.052158095
000100 a4 f1 d1 bc 60 3a 53 3d 52 d6 28 bd 86 5a 2c bd
       -0.025627919 0.051569343 -0.041220017 -0.042078517
000110 5e 0e 29 3d 8a 00 1c 3d 0c ab 8d 3c 9e 5e 26 3d
       0.041273467 0.03808645 0.017293476 0.040617578
000120 90 35 9d 3b 50 26 99 bc ea 3d 3c 3d 50 3b 45 bc
       0.004797645 -0.018695027 0.045957483 -0.012038067
000130 d6 c9 21 bd 5e 4f 10 3d 0c 73 9a bc 12 b7 11 3d
       -0.039499126 0.03523194 -0.018853687 0.03557498
000140 80 35 dc 3c c0 c0 2e bd 9a 40 28 3d 5a da 14 3d
       0.02688098 -0.04266429 0.041077234 0.03634105
000150 58 7a 16 3d 46 42 72 3d d4 7b 81 bc ee f4 6c bd
       0.03673777 0.059145235 -0.015806116 -0.05785077
000160 ac 2e 4c bd 80 26 76 3d f4 84 eb 3c 00 e8 2b 39
       -0.049849197 0.06009531 0.02874992 0.00016394258
000170 9c d0 b3 3c 40 05 96 3b 72 4f 4a 3d 08 94 9c 3c
       0.021950059 0.0045782626 0.04939217 0.019113556
000180 44 ce 95 bc aa 9b 1e 3d 08 96 fc 3c 06 23 3d bd
       -0.018286832 0.03872267 0.03083326 -0.04617598
000190 d0 c0 06 3c 40 d9 f3 bc f0 d4 11 3d 82 18 3b 3d
       0.008224681 -0.029766679 0.035603464 0.04567767
0001a0 04 f9 06 3d 20 8a 38 3c f0 fd 1b 3d 80 5a 75 3b
       0.032952324 0.0112634 0.03808397 0.0037437975
0001b0 60 9d d5 bb 18 7b 25 3c 88 e7 68 3c 20 ae f6 bc
       -0.0065190047 0.010100149 0.014215358 -0.030112326
0001c0 96 7f 40 bd e4 21 0a bd da dd 0f bd 90 92 90 bb
       -0.046996675 -0.033723727 -0.035123684 -0.004412003
0001d0 56 77 6f bd de 55 14 3d 80 36 5f 3a a8 dd 7f 3d
       -0.058463417 0.0362147 0.0008514896 0.062467247
0001e0 1a 31 6c 3d 98 83 9e 3c ba 57 2d bd 84 d6 9c 3c
       0.057664014 0.019349858 -0.04231999 0.019145258
0001f0 14 e8 62 bd ec 4d 8c bc ca 66 1a bd 00 31 7e bb
       -0.05539711 -0.017127 -0.037695684 -0.003878653
000200 b8 69 06 bc a8 5b 4f bd a4 d3 53 3d 6c 9f 1f bd
       -0.008203916 -0.05062452 0.051715508 -0.038970396
000210 74 22 a3 bc 2c 78 04 bd d8 5b b8 bc dc e5 6f bd
       -0.01991389 -0.032341167 -0.022504732 -0.05856882
000220 a4 86 50 bd 8a 70 5a bd 38 3d 59 bc 00 12 22 3d
       -0.050909653 -0.053329982 -0.013259225 0.039567947
000230 ce cf 2b bd 04 fa 6a bd b4 ec 75 bd ac 6e 43 3d
       -0.041946225 -0.05736734 -0.06004019 0.047712967
000240 e4 b2 1f bd 3c bc e3 3c 7e 68 4e 3d 4a d9 2a bd
       -0.038988963 0.027799718 0.05039262 -0.04171113
000250 b0 5e 27 bc 7c ba a6 3c 5e 09 37 bd 40 dd ed ba
       -0.010215446 0.020352595 -0.044686668 -0.0018147603
000260 b6 b4 0b 3d d6 71 10 3d c8 d7 60 bd b0 28 f8 bb
       0.034107886 0.035264812 -0.054893285 -0.0075732097
000270 cc 2f 8f 3c 82 d3 3f 3d c8 9d 43 3c 6c 53 f5 3c
       0.017478846 0.04683257 0.011939473 0.029947005
000280 c2 3d 7d bd d8 1a 48 bd e8 d0 86 3c c0 d5 41 bc
       -0.061826475 -0.048853725 0.016457036 -0.011830747
000290 dc b3 16 3d 92 55 50 bd 2a d5 40 bd 04 f7 61 bd
       0.03679262 -0.050862856 -0.04707829 -0.055167213
0002a0 a8 18 96 bc 70 90 07 3d 84 7d 37 3d a0 3b 6e 3c
       -0.018322304 0.03309673 0.044797435 0.014540583
0002b0 7c 21 0e 3d 2c 6d 12 bd f8 3c e7 3c a0 a2 38 3b
       0.034699902 -0.035748646 0.028227314 0.0028173104
0002c0 1c 99 1f 3d d8 e3 c9 3c fe 9a 1e 3d 5e b2 39 3d
       0.038964376 0.024644777 0.03872203 0.04533612
0002d0 d0 09 ef bb 24 f5 2e bd 26 78 11 3d 18 09 a8 3c
       -0.007294871 -0.042714253 0.035514973 0.020512149
0002e0 82 a8 07 3d fa e8 1f bd 80 ad 78 3d 60 f4 d9 bb
       0.033119686 -0.039040543 0.060712337 -0.006651446
0002f0 56 47 03 bd 46 45 6f 3d 78 2a ab 3c 40 8a 37 bd
       -0.032050453 0.058415674 0.020894274 -0.04480958
000300 f4 27 a6 bc 94 e0 25 bd 20 9b 45 3b 80 f3 20 3c
       -0.020282723 -0.040497378 0.0030152276 0.00982368
000310 58 62 f6 3c 8e 98 52 bd 6e 01 2d bd 20 d5 15 bd
       0.03007619 -0.05141502 -0.04223769 -0.036580205
000320 ae 34 46 3d dc 1d 15 bd 18 f2 8d 3c 42 36 1b bd
       0.048390083 -0.03640543 0.017327353 -0.03789354
000330 00 34 02 39 80 0f b7 3a 08 0d 50 bc f8 1a b5 3c
       0.00012417138 0.0013966411 -0.012698419 0.022107586
000340 cc 21 a7 3c 74 6c be 3c 44 19 cb bc 50 a6 b3 bc
       0.020401858 0.023245074 -0.024792321 -0.02192989
000350 c4 21 ea bc 8a b3 75 bd 64 4d cc 3c f0 ba e9 3b
       -0.028580554 -0.059985675 0.024939246 0.0071328804
000360 7c 0e de 3c 00 bb 66 bb c2 76 24 3d 2e 4f 43 3d
       0.027106516 -0.0035206676 0.04015232 0.047682934
000370 42 1c 2f bd 4c 06 ec 3c 70 61 05 bc 78 fd 8e bc
       -0.042751558 0.028811596 -0.008140907 -0.017454848
000380 00 ff 7a 3b c0 c5 2e bb 1c c1 7a bd 34 e5 e7 3c
       0.0038298965 -0.002666816 -0.06121932 0.028307535
000390 5a 6f 5b bd f8 31 b7 3c 40 24 1b bd e6 a1 19 3d
       -0.05357299 0.022362694 -0.037876368 0.037507914
0003a0 ec d9 d1 3c 64 de b7 bc 76 16 0a 3d fc 5c 73 3d
       0.025616609 -0.022444911 0.033712827 0.05941485
0003b0 e8 52 28 3c c8 ae 64 3d e0 6e fc bc ea 1e 5f 3d
       0.010273673 0.055830747 -0.030814588 0.05447284
0003c0 50 9b e5 bc d0 e0 b1 3b 00 3e c9 39 10 4d 84 bb
       -0.02802816 0.005428411 0.000383839 -0.004037507
0003d0 f0 40 4e bc 92 c7 27 bd 84 77 60 bd 3c 8a ca bc
       -0.0125887245 -0.04096181 -0.05480148 -0.024724118
0003e0 d4 cf 08 bd e0 56 4e bd 08 a7 60 bd 44 9a 70 3d
       -0.033401325 -0.05037582 -0.054846793 0.05874087
0003f0 38 60 10 bd de 4b 56 3d 4c 60 07 bd aa 13 30 3d
       -0.03524801 0.052318446 -0.03305082 0.042987503

onnx::MatMul_221 f4 [16, 2]
000000 c0 a6 aa bb 80 3c af 3c f8 bd 00 3d 58 ab 00 3d
       -0.0052078664 0.021391153 0.03143117 0.031413406
000010 c4 43 42 3e c8 af 29 3e 08 e7 27 bd a0 48 51 3d
       0.18971163 0.16570961 -0.040991813 0.05109465
000020 14 27 1b be a0 72 6a 3c 2c 7d 13 3e 52 cb 08 be
       -0.15151626 0.014309555 0.14403218 -0.1335881
000030 d2 db 2d be a0 63 66 bc 58 88 2c bd fa 20 5b 3e
       -0.16978386 -0.014061838 -0.042122215 0.21399298
000040 e8 1e 35 3d 46 e6 3d be 44 e1 ee 3d a4 d9 10 3e
       0.044218928 -0.18544874 0.1166406 0.14145523
000050 ae 6e 5e 3e e6 3b 03 be c0 ea 03 be d0 a8 94 bd
       0.21721908 -0.12815818 -0.12882519 -0.07258761
000060 5c a8 4b 3e 40 5b fe bb 72 5f 73 be 60 90 88 3c
       0.19888443 -0.0077623427 -0.23766878 0.016670406
000070 00 33 a8 3c ee c0 3f be 08 eb 67 3e 16 ef 08 3e
       0.020532131 -0.1872594 0.22648251 0.13372454
